…
 [  10    3    3    2   14   10  912    0    3    1]
 [   0   17   31   19  107   32    0  758   10   54]
 [   2    0    5    6   19   23    5    0  900   14]
 [   6    3    3    2   97   14    1    1   18  864]]
done

Process finished with exit code 0

Model: "raw_model"
_________________________________________________________________
Layer (type)                 Output Shape              Param #
=================================================================
model_input (InputLayer)     [(None, 71, 71, 3)]       0
_________________________________________________________________
conv1_1 (Conv2D)             (None, 71, 71, 64)        1792
_________________________________________________________________
conv1_2 (Conv2D)             (None, 71, 71, 64)        4160
_________________________________________________________________
mp1 (MaxPooling2D)           (None, 35, 35, 64)        0
_________________________________________________________________
bn1 (BatchNormalization)     (None, 35, 35, 64)        256
_________________________________________________________________
conv2_1 (Conv2D)             (None, 35, 35, 64)        36928
_________________________________________________________________
conv2_2 (Conv2D)             (None, 35, 35, 64)        4160
_________________________________________________________________
mp2 (MaxPooling2D)           (None, 17, 17, 64)        0
_________________________________________________________________
bn2 (BatchNormalization)     (None, 17, 17, 64)        256
_________________________________________________________________
conv3 (Conv2D)               (None, 17, 17, 64)        36928
_________________________________________________________________
conv3_2 (Conv2D)             (None, 17, 17, 64)        4160
_________________________________________________________________
mp3 (MaxPooling2D)           (None, 8, 8, 64)          0
_________________________________________________________________
bn3 (BatchNormalization)     (None, 8, 8, 64)          256
_________________________________________________________________
dense (Dense)                (None, 8, 8, 200)         13000
_________________________________________________________________
gmp (GlobalMaxPooling2D)     (None, 200)               0
_________________________________________________________________
dense_1 (Dense)              (None, 10)                2010
=================================================================
Total params: 103,906
Trainable params: 103,522
Non-trainable params: 384
_________________________________________________________________
None
Train on 48000 samples, validate on 12000 samples
Epoch 1/10
48000/48000 [==============================] - 404s 8ms/sample - loss: 0.3066 - accuracy: 0.9068 - val_loss: 0.1861 - val_accuracy: 0.9419
…
